…
WARNING:absl:ring_buffer_size_in_time_dim overwritten by the passed-in value: 4
WARNING:absl:ring_buffer_size_in_time_dim overwritten by the passed-in value: 10
WARNING:absl:ring_buffer_size_in_time_dim overwritten by the passed-in value: 14
WARNING:absl:ring_buffer_size_in_time_dim overwritten by the passed-in value: 22
WARNING:absl:ring_buffer_size_in_time_dim overwritten by the passed-in value: 16
Model: "functional"
┏━━━━━━━━━━━━━━━━━━━━━┳━━━━━━━━━━━━━━━━━━━┳━━━━━━━━━━━━┳━━━━━━━━━━━━━━━━━━━┓
┃ Layer (type)        ┃ Output Shape      ┃    Param # ┃ Connected to      ┃
┡━━━━━━━━━━━━━━━━━━━━━╇━━━━━━━━━━━━━━━━━━━╇━━━━━━━━━━━━╇━━━━━━━━━━━━━━━━━━━┩
│ input_layer         │ (128, 204, 40)    │          0 │ -                 │
│ (InputLayer)        │                   │            │                   │
├─────────────────────┼───────────────────┼────────────┼───────────────────┤
│ expand_dims         │ (128, 204, 1, 40) │          0 │ input_layer[0][0] │
│ (ExpandDims)        │                   │            │                   │
├─────────────────────┼───────────────────┼────────────┼───────────────────┤
│ stream (Stream)     │ (128, 67, 1, 32)  │      6,400 │ expand_dims[0][0] │
├─────────────────────┼───────────────────┼────────────┼───────────────────┤
│ activation          │ (128, 67, 1, 32)  │          0 │ stream[0][0]      │
│ (Activation)        │                   │            │                   │
├─────────────────────┼───────────────────┼────────────┼───────────────────┤
│ stream_1 (Stream)   │ (128, 67, 1, 32)  │          0 │ activation[0][0]  │
├─────────────────────┼───────────────────┼────────────┼───────────────────┤
│ depthwise_conv2d    │ (128, 63, 1, 32)  │        192 │ stream_1[0][0]    │
│ (DepthwiseConv2D)   │                   │            │                   │
├─────────────────────┼───────────────────┼────────────┼───────────────────┤
│ conv2d_1 (Conv2D)   │ (128, 63, 1, 64)  │      2,048 │ depthwise_conv2d… │
├─────────────────────┼───────────────────┼────────────┼───────────────────┤
│ batch_normalization │ (128, 63, 1, 64)  │        256 │ conv2d_1[0][0]    │
│ (BatchNormalizatio… │                   │            │                   │
├─────────────────────┼───────────────────┼────────────┼───────────────────┤
│ activation_1        │ (128, 63, 1, 64)  │          0 │ batch_normalizat… │
│ (Activation)        │                   │            │                   │
├─────────────────────┼───────────────────┼────────────┼───────────────────┤
│ stream_2 (Stream)   │ (128, 63, 1, 64)  │          0 │ activation_1[0][… │
├─────────────────────┼───────────────────┼────────────┼───────────────────┤
│ channel_split       │ [(128, 63, 1,     │          0 │ stream_2[0][0]    │
│ (ChannelSplit)      │ 32), (128, 63, 1, │            │                   │
│                     │ 32)]              │            │                   │
├─────────────────────┼───────────────────┼────────────┼───────────────────┤
│ strided_keep        │ (128, 63, 1, 32)  │          0 │ channel_split[0]… │
│ (StridedKeep)       │                   │            │                   │
├─────────────────────┼───────────────────┼────────────┼───────────────────┤
│ strided_keep_1      │ (128, 63, 1, 32)  │          0 │ channel_split[0]… │
│ (StridedKeep)       │                   │            │                   │
├─────────────────────┼───────────────────┼────────────┼───────────────────┤
│ depthwise_conv2d_1  │ (128, 57, 1, 32)  │        256 │ strided_keep[0][… │
│ (DepthwiseConv2D)   │                   │            │                   │
├─────────────────────┼───────────────────┼────────────┼───────────────────┤
│ depthwise_conv2d_2  │ (128, 53, 1, 32)  │        384 │ strided_keep_1[0… │
│ (DepthwiseConv2D)   │                   │            │                   │
├─────────────────────┼───────────────────┼────────────┼───────────────────┤
│ strided_drop        │ (128, 53, 1, 32)  │          0 │ depthwise_conv2d… │
│ (StridedDrop)       │                   │            │                   │
├─────────────────────┼───────────────────┼────────────┼───────────────────┤
│ strided_drop_1      │ (128, 53, 1, 32)  │          0 │ depthwise_conv2d… │
│ (StridedDrop)       │                   │            │                   │
├─────────────────────┼───────────────────┼────────────┼───────────────────┤
│ concatenate         │ (128, 53, 1, 64)  │          0 │ strided_drop[0][… │
│ (Concatenate)       │                   │            │ strided_drop_1[0… │
├─────────────────────┼───────────────────┼────────────┼───────────────────┤
│ conv2d_2 (Conv2D)   │ (128, 53, 1, 64)  │      4,096 │ concatenate[0][0] │
├─────────────────────┼───────────────────┼────────────┼───────────────────┤
│ batch_normalizatio… │ (128, 53, 1, 64)  │        256 │ conv2d_2[0][0]    │
│ (BatchNormalizatio… │                   │            │                   │
├─────────────────────┼───────────────────┼────────────┼───────────────────┤
│ activation_2        │ (128, 53, 1, 64)  │          0 │ batch_normalizat… │
│ (Activation)        │                   │            │                   │
├─────────────────────┼───────────────────┼────────────┼───────────────────┤
│ stream_3 (Stream)   │ (128, 53, 1, 64)  │          0 │ activation_2[0][… │
├─────────────────────┼───────────────────┼────────────┼───────────────────┤
│ channel_split_1     │ [(128, 53, 1,     │          0 │ stream_3[0][0]    │
│ (ChannelSplit)      │ 32), (128, 53, 1, │            │                   │
│                     │ 32)]              │            │                   │
├─────────────────────┼───────────────────┼────────────┼───────────────────┤
│ strided_keep_2      │ (128, 53, 1, 32)  │          0 │ channel_split_1[… │
│ (StridedKeep)       │                   │            │                   │
├─────────────────────┼───────────────────┼────────────┼───────────────────┤
│ strided_keep_3      │ (128, 53, 1, 32)  │          0 │ channel_split_1[… │
│ (StridedKeep)       │                   │            │                   │
├─────────────────────┼───────────────────┼────────────┼───────────────────┤
│ depthwise_conv2d_3  │ (128, 45, 1, 32)  │        320 │ strided_keep_2[0… │
│ (DepthwiseConv2D)   │                   │            │                   │
├─────────────────────┼───────────────────┼────────────┼───────────────────┤
│ depthwise_conv2d_4  │ (128, 39, 1, 32)  │        512 │ strided_keep_3[0… │
│ (DepthwiseConv2D)   │                   │            │                   │
├─────────────────────┼───────────────────┼────────────┼───────────────────┤
│ strided_drop_2      │ (128, 39, 1, 32)  │          0 │ depthwise_conv2d… │
│ (StridedDrop)       │                   │            │                   │
├─────────────────────┼───────────────────┼────────────┼───────────────────┤
│ strided_drop_3      │ (128, 39, 1, 32)  │          0 │ depthwise_conv2d… │
│ (StridedDrop)       │                   │            │                   │
├─────────────────────┼───────────────────┼────────────┼───────────────────┤
│ concatenate_1       │ (128, 39, 1, 64)  │          0 │ strided_drop_2[0… │
│ (Concatenate)       │                   │            │ strided_drop_3[0… │
├─────────────────────┼───────────────────┼────────────┼───────────────────┤
│ conv2d_3 (Conv2D)   │ (128, 39, 1, 64)  │      4,096 │ concatenate_1[0]… │
├─────────────────────┼───────────────────┼────────────┼───────────────────┤
│ batch_normalizatio… │ (128, 39, 1, 64)  │        256 │ conv2d_3[0][0]    │
│ (BatchNormalizatio… │                   │            │                   │
├─────────────────────┼───────────────────┼────────────┼───────────────────┤
│ activation_3        │ (128, 39, 1, 64)  │          0 │ batch_normalizat… │
│ (Activation)        │                   │            │                   │
├─────────────────────┼───────────────────┼────────────┼───────────────────┤
│ stream_4 (Stream)   │ (128, 39, 1, 64)  │          0 │ activation_3[0][… │
├─────────────────────┼───────────────────┼────────────┼───────────────────┤
│ depthwise_conv2d_5  │ (128, 17, 1, 64)  │      1,536 │ stream_4[0][0]    │
│ (DepthwiseConv2D)   │                   │            │                   │
├─────────────────────┼───────────────────┼────────────┼───────────────────┤
│ conv2d_4 (Conv2D)   │ (128, 17, 1, 64)  │      4,096 │ depthwise_conv2d… │
├─────────────────────┼───────────────────┼────────────┼───────────────────┤
│ batch_normalizatio… │ (128, 17, 1, 64)  │        256 │ conv2d_4[0][0]    │
│ (BatchNormalizatio… │                   │            │                   │
├─────────────────────┼───────────────────┼────────────┼───────────────────┤
│ activation_4        │ (128, 17, 1, 64)  │          0 │ batch_normalizat… │
│ (Activation)        │                   │            │                   │
├─────────────────────┼───────────────────┼────────────┼───────────────────┤
│ stream_5 (Stream)   │ (128, 17, 1, 64)  │          0 │ activation_4[0][… │
├─────────────────────┼───────────────────┼────────────┼───────────────────┤
│ flatten (Flatten)   │ (128, 1088)       │          0 │ stream_5[0][0]    │
├─────────────────────┼───────────────────┼────────────┼───────────────────┤
│ dense (Dense)       │ (128, 1)          │      1,089 │ flatten[0][0]     │
└─────────────────────┴───────────────────┴────────────┴───────────────────┘
 Total params: 26,049 (101.75 KB)
 Trainable params: 25,537 (99.75 KB)
 Non-trainable params: 512 (2.00 KB)
INFO:absl:None
I0000 00:00:1776272453.926809    1067 service.cc:153] XLA service 0x3b54cbc0 initialized for platform CUDA (this does not guarantee that XLA will be used). Devices:
I0000 00:00:1776272453.926862    1067 service.cc:161]   StreamExecutor [0]: NVIDIA GeForce RTX 2060 SUPER, Compute Capability 7.5 (Driver: 13.1.0; Runtime: 12.9.0; Toolkit: 12.5.0; DNN: 9.20.0)
…
WARNING:absl:ring_buffer_size_in_time_dim overwritten by the passed-in value: 16
Validation Batch #20: Accuracy = 0.999; Recall = 0.993; Precision = 0.994; Loss = 0.0026; Mini-Batch #498Validation Batch #20: Accuracy = 0.999; Recall = 0.993; Precision = 0.994; Loss = 0.0026; Mini-Batch #499Validation Batch #21: Accuracy = 0.999; Recall = 0.993; Precision = 0.994; Loss = 0.0026; Mini-Batch #0Model: "functional_1"
┏━━━━━━━━━━━━━━━━━━━━━┳━━━━━━━━━━━━━━━━━━━┳━━━━━━━━━━━━┳━━━━━━━━━━━━━━━━━━━┓
┃ Layer (type)        ┃ Output Shape      ┃    Param # ┃ Connected to      ┃
┡━━━━━━━━━━━━━━━━━━━━━╇━━━━━━━━━━━━━━━━━━━╇━━━━━━━━━━━━╇━━━━━━━━━━━━━━━━━━━┩
│ input_layer_1       │ (1, 204, 40)      │          0 │ -                 │
│ (InputLayer)        │                   │            │                   │
├─────────────────────┼───────────────────┼────────────┼───────────────────┤
│ expand_dims_1       │ (1, 204, 1, 40)   │          0 │ input_layer_1[0]… │
│ (ExpandDims)        │                   │            │                   │
├─────────────────────┼───────────────────┼────────────┼───────────────────┤
│ stream_6 (Stream)   │ (1, 67, 1, 32)    │      6,400 │ expand_dims_1[0]… │
├─────────────────────┼───────────────────┼────────────┼───────────────────┤
│ activation_5        │ (1, 67, 1, 32)    │          0 │ stream_6[0][0]    │
│ (Activation)        │                   │            │                   │
├─────────────────────┼───────────────────┼────────────┼───────────────────┤
│ stream_7 (Stream)   │ (1, 67, 1, 32)    │          0 │ activation_5[0][… │
├─────────────────────┼───────────────────┼────────────┼───────────────────┤
│ depthwise_conv2d_6  │ (1, 63, 1, 32)    │        192 │ stream_7[0][0]    │
│ (DepthwiseConv2D)   │                   │            │                   │
├─────────────────────┼───────────────────┼────────────┼───────────────────┤
│ conv2d_6 (Conv2D)   │ (1, 63, 1, 64)    │      2,048 │ depthwise_conv2d… │
├─────────────────────┼───────────────────┼────────────┼───────────────────┤
│ batch_normalizatio… │ (1, 63, 1, 64)    │        256 │ conv2d_6[0][0]    │
│ (BatchNormalizatio… │                   │            │                   │
├─────────────────────┼───────────────────┼────────────┼───────────────────┤
│ activation_6        │ (1, 63, 1, 64)    │          0 │ batch_normalizat… │
│ (Activation)        │                   │            │                   │
├─────────────────────┼───────────────────┼────────────┼───────────────────┤
│ stream_8 (Stream)   │ (1, 63, 1, 64)    │          0 │ activation_6[0][… │
├─────────────────────┼───────────────────┼────────────┼───────────────────┤
│ channel_split_2     │ [(1, 63, 1, 32),  │          0 │ stream_8[0][0]    │
│ (ChannelSplit)      │ (1, 63, 1, 32)]   │            │                   │
├─────────────────────┼───────────────────┼────────────┼───────────────────┤
│ strided_keep_4      │ (1, 63, 1, 32)    │          0 │ channel_split_2[… │
│ (StridedKeep)       │                   │            │                   │
├─────────────────────┼───────────────────┼────────────┼───────────────────┤
│ strided_keep_5      │ (1, 63, 1, 32)    │          0 │ channel_split_2[… │
│ (StridedKeep)       │                   │            │                   │
├─────────────────────┼───────────────────┼────────────┼───────────────────┤
│ depthwise_conv2d_7  │ (1, 57, 1, 32)    │        256 │ strided_keep_4[0… │
│ (DepthwiseConv2D)   │                   │            │                   │
├─────────────────────┼───────────────────┼────────────┼───────────────────┤
│ depthwise_conv2d_8  │ (1, 53, 1, 32)    │        384 │ strided_keep_5[0… │
│ (DepthwiseConv2D)   │                   │            │                   │
├─────────────────────┼───────────────────┼────────────┼───────────────────┤
│ strided_drop_4      │ (1, 53, 1, 32)    │          0 │ depthwise_conv2d… │
│ (StridedDrop)       │                   │            │                   │
├─────────────────────┼───────────────────┼────────────┼───────────────────┤
│ strided_drop_5      │ (1, 53, 1, 32)    │          0 │ depthwise_conv2d… │
│ (StridedDrop)       │                   │            │                   │
├─────────────────────┼───────────────────┼────────────┼───────────────────┤
│ concatenate_2       │ (1, 53, 1, 64)    │          0 │ strided_drop_4[0… │
│ (Concatenate)       │                   │            │ strided_drop_5[0… │
├─────────────────────┼───────────────────┼────────────┼───────────────────┤
│ conv2d_7 (Conv2D)   │ (1, 53, 1, 64)    │      4,096 │ concatenate_2[0]… │
├─────────────────────┼───────────────────┼────────────┼───────────────────┤
│ batch_normalizatio… │ (1, 53, 1, 64)    │        256 │ conv2d_7[0][0]    │
│ (BatchNormalizatio… │                   │            │                   │
├─────────────────────┼───────────────────┼────────────┼───────────────────┤
│ activation_7        │ (1, 53, 1, 64)    │          0 │ batch_normalizat… │
│ (Activation)        │                   │            │                   │
├─────────────────────┼───────────────────┼────────────┼───────────────────┤
│ stream_9 (Stream)   │ (1, 53, 1, 64)    │          0 │ activation_7[0][… │
├─────────────────────┼───────────────────┼────────────┼───────────────────┤
│ channel_split_3     │ [(1, 53, 1, 32),  │          0 │ stream_9[0][0]    │
│ (ChannelSplit)      │ (1, 53, 1, 32)]   │            │                   │
├─────────────────────┼───────────────────┼────────────┼───────────────────┤
│ strided_keep_6      │ (1, 53, 1, 32)    │          0 │ channel_split_3[… │
│ (StridedKeep)       │                   │            │                   │
├─────────────────────┼───────────────────┼────────────┼───────────────────┤
│ strided_keep_7      │ (1, 53, 1, 32)    │          0 │ channel_split_3[… │
│ (StridedKeep)       │                   │            │                   │
├─────────────────────┼───────────────────┼────────────┼───────────────────┤
│ depthwise_conv2d_9  │ (1, 45, 1, 32)    │        320 │ strided_keep_6[0… │
│ (DepthwiseConv2D)   │                   │            │                   │
├─────────────────────┼───────────────────┼────────────┼───────────────────┤
│ depthwise_conv2d_10 │ (1, 39, 1, 32)    │        512 │ strided_keep_7[0… │
│ (DepthwiseConv2D)   │                   │            │                   │
├─────────────────────┼───────────────────┼────────────┼───────────────────┤
│ strided_drop_6      │ (1, 39, 1, 32)    │          0 │ depthwise_conv2d… │
│ (StridedDrop)       │                   │            │                   │
├─────────────────────┼───────────────────┼────────────┼───────────────────┤
│ strided_drop_7      │ (1, 39, 1, 32)    │          0 │ depthwise_conv2d… │
│ (StridedDrop)       │                   │            │                   │
├─────────────────────┼───────────────────┼────────────┼───────────────────┤
│ concatenate_3       │ (1, 39, 1, 64)    │          0 │ strided_drop_6[0… │
│ (Concatenate)       │                   │            │ strided_drop_7[0… │
├─────────────────────┼───────────────────┼────────────┼───────────────────┤
│ conv2d_8 (Conv2D)   │ (1, 39, 1, 64)    │      4,096 │ concatenate_3[0]… │
├─────────────────────┼───────────────────┼────────────┼───────────────────┤
│ batch_normalizatio… │ (1, 39, 1, 64)    │        256 │ conv2d_8[0][0]    │
│ (BatchNormalizatio… │                   │            │                   │
├─────────────────────┼───────────────────┼────────────┼───────────────────┤
│ activation_8        │ (1, 39, 1, 64)    │          0 │ batch_normalizat… │
│ (Activation)        │                   │            │                   │
├─────────────────────┼───────────────────┼────────────┼───────────────────┤
│ stream_10 (Stream)  │ (1, 39, 1, 64)    │          0 │ activation_8[0][… │
├─────────────────────┼───────────────────┼────────────┼───────────────────┤
│ depthwise_conv2d_11 │ (1, 17, 1, 64)    │      1,536 │ stream_10[0][0]   │
│ (DepthwiseConv2D)   │                   │            │                   │
├─────────────────────┼───────────────────┼────────────┼───────────────────┤
│ conv2d_9 (Conv2D)   │ (1, 17, 1, 64)    │      4,096 │ depthwise_conv2d… │
├─────────────────────┼───────────────────┼────────────┼───────────────────┤
│ batch_normalizatio… │ (1, 17, 1, 64)    │        256 │ conv2d_9[0][0]    │
│ (BatchNormalizatio… │                   │            │                   │
├─────────────────────┼───────────────────┼────────────┼───────────────────┤
│ activation_9        │ (1, 17, 1, 64)    │          0 │ batch_normalizat… │
│ (Activation)        │                   │            │                   │
├─────────────────────┼───────────────────┼────────────┼───────────────────┤
│ stream_11 (Stream)  │ (1, 17, 1, 64)    │          0 │ activation_9[0][… │
├─────────────────────┼───────────────────┼────────────┼───────────────────┤
│ flatten_1 (Flatten) │ (1, 1088)         │          0 │ stream_11[0][0]   │
├─────────────────────┼───────────────────┼────────────┼───────────────────┤
│ dense_1 (Dense)     │ (1, 1)            │      1,089 │ flatten_1[0][0]   │
└─────────────────────┴───────────────────┴────────────┴───────────────────┘
 Total params: 26,049 (101.75 KB)
 Trainable params: 25,537 (99.75 KB)
 Non-trainable params: 512 (2.00 KB)
INFO:absl:None
INFO:absl:Saving streaming model
WARNING:absl:ring_buffer_size_in_time_dim overwritten by the passed-in value: 2
WARNING:absl:ring_buffer_size_in_time_dim overwritten by the passed-in value: 4
WARNING:absl:ring_buffer_size_in_time_dim overwritten by the passed-in value: 10
WARNING:absl:ring_buffer_size_in_time_dim overwritten by the passed-in value: 14
WARNING:absl:ring_buffer_size_in_time_dim overwritten by the passed-in value: 22
WARNING:absl:ring_buffer_size_in_time_dim overwritten by the passed-in value: 16
Model: "functional_1"
┏━━━━━━━━━━━━━━━━━━━━━┳━━━━━━━━━━━━━━━━━━━┳━━━━━━━━━━━━┳━━━━━━━━━━━━━━━━━━━┓
┃ Layer (type)        ┃ Output Shape      ┃    Param # ┃ Connected to      ┃
┡━━━━━━━━━━━━━━━━━━━━━╇━━━━━━━━━━━━━━━━━━━╇━━━━━━━━━━━━╇━━━━━━━━━━━━━━━━━━━┩
│ input_audio         │ (1, 3, 40)        │          0 │ -                 │
│ (InputLayer)        │                   │            │                   │
├─────────────────────┼───────────────────┼────────────┼───────────────────┤
│ expand_dims_1       │ (1, 3, 1, 40)     │          0 │ input_audio[0][0] │
│ (ExpandDims)        │                   │            │                   │
├─────────────────────┼───────────────────┼────────────┼───────────────────┤
│ stream_6 (Stream)   │ (1, 1, 1, 32)     │      6,480 │ expand_dims_1[0]… │
├─────────────────────┼───────────────────┼────────────┼───────────────────┤
│ activation_5        │ (1, 1, 1, 32)     │          0 │ stream_6[0][0]    │
│ (Activation)        │                   │            │                   │
├─────────────────────┼───────────────────┼────────────┼───────────────────┤
│ stream_7 (Stream)   │ (1, 5, 1, 32)     │        128 │ activation_5[0][… │
├─────────────────────┼───────────────────┼────────────┼───────────────────┤
│ depthwise_conv2d_6  │ (1, 1, 1, 32)     │        192 │ stream_7[0][0]    │
│ (DepthwiseConv2D)   │                   │            │                   │
├─────────────────────┼───────────────────┼────────────┼───────────────────┤
│ conv2d_6 (Conv2D)   │ (1, 1, 1, 64)     │      2,048 │ depthwise_conv2d… │
├─────────────────────┼───────────────────┼────────────┼───────────────────┤
│ batch_normalizatio… │ (1, 1, 1, 64)     │        256 │ conv2d_6[0][0]    │
│ (BatchNormalizatio… │                   │            │                   │
├─────────────────────┼───────────────────┼────────────┼───────────────────┤
│ activation_6        │ (1, 1, 1, 64)     │          0 │ batch_normalizat… │
│ (Activation)        │                   │            │                   │
├─────────────────────┼───────────────────┼────────────┼───────────────────┤
│ stream_8 (Stream)   │ (1, 11, 1, 64)    │        640 │ activation_6[0][… │
├─────────────────────┼───────────────────┼────────────┼───────────────────┤
│ channel_split_2     │ [(1, 11, 1, 32),  │          0 │ stream_8[0][0]    │
│ (ChannelSplit)      │ (1, 11, 1, 32)]   │            │                   │
├─────────────────────┼───────────────────┼────────────┼───────────────────┤
│ strided_keep_4      │ (1, 7, 1, 32)     │          0 │ channel_split_2[… │
│ (StridedKeep)       │                   │            │                   │
├─────────────────────┼───────────────────┼────────────┼───────────────────┤
│ strided_keep_5      │ (1, 11, 1, 32)    │          0 │ channel_split_2[… │
│ (StridedKeep)       │                   │            │                   │
├─────────────────────┼───────────────────┼────────────┼───────────────────┤
│ depthwise_conv2d_7  │ (1, 1, 1, 32)     │        256 │ strided_keep_4[0… │
│ (DepthwiseConv2D)   │                   │            │                   │
├─────────────────────┼───────────────────┼────────────┼───────────────────┤
│ depthwise_conv2d_8  │ (1, 1, 1, 32)     │        384 │ strided_keep_5[0… │
│ (DepthwiseConv2D)   │                   │            │                   │
├─────────────────────┼───────────────────┼────────────┼───────────────────┤
│ strided_drop_4      │ (1, 1, 1, 32)     │          0 │ depthwise_conv2d… │
│ (StridedDrop)       │                   │            │                   │
├─────────────────────┼───────────────────┼────────────┼───────────────────┤
│ strided_drop_5      │ (1, 1, 1, 32)     │          0 │ depthwise_conv2d… │
│ (StridedDrop)       │                   │            │                   │
├─────────────────────┼───────────────────┼────────────┼───────────────────┤
│ concatenate_2       │ (1, 1, 1, 64)     │          0 │ strided_drop_4[0… │
│ (Concatenate)       │                   │            │ strided_drop_5[0… │
├─────────────────────┼───────────────────┼────────────┼───────────────────┤
│ conv2d_7 (Conv2D)   │ (1, 1, 1, 64)     │      4,096 │ concatenate_2[0]… │
├─────────────────────┼───────────────────┼────────────┼───────────────────┤
│ batch_normalizatio… │ (1, 1, 1, 64)     │        256 │ conv2d_7[0][0]    │
│ (BatchNormalizatio… │                   │            │                   │
├─────────────────────┼───────────────────┼────────────┼───────────────────┤
│ activation_7        │ (1, 1, 1, 64)     │          0 │ batch_normalizat… │
│ (Activation)        │                   │            │                   │
├─────────────────────┼───────────────────┼────────────┼───────────────────┤
│ stream_9 (Stream)   │ (1, 15, 1, 64)    │        896 │ activation_7[0][… │
├─────────────────────┼───────────────────┼────────────┼───────────────────┤
│ channel_split_3     │ [(1, 15, 1, 32),  │          0 │ stream_9[0][0]    │
│ (ChannelSplit)      │ (1, 15, 1, 32)]   │            │                   │
├─────────────────────┼───────────────────┼────────────┼───────────────────┤
│ strided_keep_6      │ (1, 9, 1, 32)     │          0 │ channel_split_3[… │
│ (StridedKeep)       │                   │            │                   │
├─────────────────────┼───────────────────┼────────────┼───────────────────┤
│ strided_keep_7      │ (1, 15, 1, 32)    │          0 │ channel_split_3[… │
│ (StridedKeep)       │                   │            │                   │
├─────────────────────┼───────────────────┼────────────┼───────────────────┤
│ depthwise_conv2d_9  │ (1, 1, 1, 32)     │        320 │ strided_keep_6[0… │
│ (DepthwiseConv2D)   │                   │            │                   │
├─────────────────────┼───────────────────┼────────────┼───────────────────┤
│ depthwise_conv2d_10 │ (1, 1, 1, 32)     │        512 │ strided_keep_7[0… │
│ (DepthwiseConv2D)   │                   │            │                   │
├─────────────────────┼───────────────────┼────────────┼───────────────────┤
│ strided_drop_6      │ (1, 1, 1, 32)     │          0 │ depthwise_conv2d… │
│ (StridedDrop)       │                   │            │                   │
├─────────────────────┼───────────────────┼────────────┼───────────────────┤
│ strided_drop_7      │ (1, 1, 1, 32)     │          0 │ depthwise_conv2d… │
│ (StridedDrop)       │                   │            │                   │
├─────────────────────┼───────────────────┼────────────┼───────────────────┤
│ concatenate_3       │ (1, 1, 1, 64)     │          0 │ strided_drop_6[0… │
│ (Concatenate)       │                   │            │ strided_drop_7[0… │
├─────────────────────┼───────────────────┼────────────┼───────────────────┤
│ conv2d_8 (Conv2D)   │ (1, 1, 1, 64)     │      4,096 │ concatenate_3[0]… │
├─────────────────────┼───────────────────┼────────────┼───────────────────┤
│ batch_normalizatio… │ (1, 1, 1, 64)     │        256 │ conv2d_8[0][0]    │
│ (BatchNormalizatio… │                   │            │                   │
├─────────────────────┼───────────────────┼────────────┼───────────────────┤
│ activation_8        │ (1, 1, 1, 64)     │          0 │ batch_normalizat… │
│ (Activation)        │                   │            │                   │
├─────────────────────┼───────────────────┼────────────┼───────────────────┤
│ stream_10 (Stream)  │ (1, 23, 1, 64)    │      1,408 │ activation_8[0][… │
├─────────────────────┼───────────────────┼────────────┼───────────────────┤
│ depthwise_conv2d_11 │ (1, 1, 1, 64)     │      1,536 │ stream_10[0][0]   │
│ (DepthwiseConv2D)   │                   │            │                   │
├─────────────────────┼───────────────────┼────────────┼───────────────────┤
│ conv2d_9 (Conv2D)   │ (1, 1, 1, 64)     │      4,096 │ depthwise_conv2d… │
├─────────────────────┼───────────────────┼────────────┼───────────────────┤
│ batch_normalizatio… │ (1, 1, 1, 64)     │        256 │ conv2d_9[0][0]    │
│ (BatchNormalizatio… │                   │            │                   │
├─────────────────────┼───────────────────┼────────────┼───────────────────┤
│ activation_9        │ (1, 1, 1, 64)     │          0 │ batch_normalizat… │
│ (Activation)        │                   │            │                   │
├─────────────────────┼───────────────────┼────────────┼───────────────────┤
│ stream_11 (Stream)  │ (1, 17, 1, 64)    │      1,024 │ activation_9[0][… │
├─────────────────────┼───────────────────┼────────────┼───────────────────┤
│ flatten_1 (Flatten) │ (1, 1088)         │          0 │ stream_11[0][0]   │
├─────────────────────┼───────────────────┼────────────┼───────────────────┤
│ dense_1 (Dense)     │ (1, 1)            │      1,089 │ flatten_1[0][0]   │
└─────────────────────┴───────────────────┴────────────┴───────────────────┘
 Total params: 30,225 (118.07 KB)
 Trainable params: 25,537 (99.75 KB)
 Non-trainable params: 4,688 (18.31 KB)
INFO:absl:Function `call` contains input name(s) resource with unsupported characters which will be renamed to dense_1_1_add_readvariableop_resource in the SavedModel.
INFO:absl:Function `call` contains input name(s) resource with unsupported characters which will be renamed to dense_1_1_add_readvariableop_resource in the SavedModel.
…
